GymTest/model_weights.pt (torch, 22024 bytes, 7 tensors)

fc.0.weight f4 [64, 4]
000000 f5 43 99 be f3 8d e1 be 54 b8 5e 3f 9d 70 9e 3e
       -0.2993466 -0.4405361 0.8700001 0.30945292
000010 41 9c 3d 3f 9f 40 c2 3e 65 85 7f bf cb 08 ba be
       0.7406655 0.37939927 -0.9981292 -0.36334834
000020 a9 81 c2 be ba 85 a7 be db 98 99 3e 3a ee 83 bd
       -0.37989548 -0.32719213 0.29999432 -0.064419225
000030 8c b1 76 3e 5d de 66 3e e5 fc 79 be a6 eb 1e be
       0.24091166 0.22545762 -0.24412878 -0.1551958
000040 0f f1 ad bc 8e 34 5e bc 4f 16 07 bf 8b b7 5e be
       -0.02123311 -0.013562335 -0.52768415 -0.21749704
000050 fd be 0d be e8 c2 56 3e df 10 2f 3e 2a f5 a0 3e
       -0.13842387 0.20972788 0.1709628 0.31437045
000060 53 94 38 3e 8f ca a6 be 87 7f e0 be 5e 45 c9 be
       0.18025331 -0.32576415 -0.43847296 -0.39310735
000070 7a 42 33 bf b9 11 e2 bb 15 49 c3 bd 95 9e 9c bd
       -0.7002331 -0.0068990854 -0.09535424 -0.076474346
000080 6d 6e b5 3d 8e 1e 9f 3e d8 1e c6 3e e7 ae d3 3e
       0.08858953 0.31078 0.38695407 0.41344377
000090 bc 53 8c 3d 97 39 e1 3e 0b b9 86 3e 6f d9 e3 3e
       0.068519086 0.4398925 0.26313052 0.44501826
0000a0 eb 66 d0 be 9f 02 c7 3e ac ee aa bd 5b cd 16 b8
       -0.4070352 0.38869187 -0.08346304 -3.595404e-05
0000b0 67 53 9b 3e 09 f0 53 3e fd fb 80 3f 75 78 16 3f
       0.30337068 0.20697035 1.0076901 0.5877755
0000c0 02 2a 12 3e 8c 59 06 3f 1f 0b af 3e 2e 51 b6 3e
       0.14273837 0.5248039 0.34188172 0.3560881
0000d0 a8 1b bc be d5 ac a9 3e 15 06 01 bf 62 f1 a3 3a
       -0.3673985 0.33139673 -0.50399905 0.0012507851
0000e0 67 5e 96 3d e4 88 88 3e 8f 46 4e 3f 14 0c cf 3e
       0.073422246 0.2666694 0.80576414 0.40438902
0000f0 0a 7a 3d be 05 dd d3 3e 65 93 85 3d ba d2 b1 3e
       -0.18503585 0.41379562 0.06522254 0.34731084
000100 5f b6 76 bc 85 fd 7a be 6b 3e 22 bd 31 a3 af 3e
       -0.015058129 -0.24510773 -0.039610308 0.34304193
000110 e3 d3 88 be f1 83 21 3e ae 1f 4f 3f a3 39 3b 3d
       -0.26724157 0.15772988 0.80907714 0.045709264
000120 32 7c 47 bf 87 eb 01 bd 84 1f 09 3f d4 6e 6c 3e
       -0.7792388 -0.031718757 0.53563714 0.23089153
000130 cd 57 eb bd ad f1 33 be 5b 19 83 3e 5c 6d c0 be
       -0.11491356 -0.1757266 0.25605282 -0.37583435
000140 e3 ff e0 3e c4 9c ba 3e cf bf aa 3f 47 27 37 3f
       0.43945226 0.36447728 1.3339785 0.7154431
000150 21 b2 62 3f 0a 5c 22 3d 14 00 fa bc f1 bd 93 be
       0.88553053 0.039638557 -0.030517615 -0.2885585
000160 28 70 16 3f 7e f7 eb 3e bd ca de 3e d7 cc 17 3e
       0.58764887 0.4608726 0.43514052 0.14824234
000170 9a 8b b2 bd 80 15 60 3d 11 eb 67 3e 06 0b 5c 3e
       -0.08718033 0.054708004 0.22648264 0.2148858
000180 7d ec 14 3e 41 df 7a be 53 0d d5 be da 95 48 bc
       0.14543338 -0.24499227 -0.41611728 -0.012242759
000190 5a 36 81 be 59 91 9c 3e aa 21 bd be 12 52 99 3d
       -0.2523678 0.3057964 -0.36939746 0.07486357
0001a0 7b 7b 1c 3f f3 99 7b bd db 54 31 3f d3 93 b1 3d
       0.61125916 -0.061426114 0.69270104 0.08670773
0001b0 6c 3f 21 bf ad c0 a7 bd 26 b5 3f 3f d8 3d f9 3e
       -0.629874 -0.08191047 0.74885786 0.48679996
0001c0 63 a5 58 3e e0 67 9d be 4a b5 b0 3e 8c c2 f1 bd
       0.2115684 -0.30743313 0.34513313 -0.11804685
0001d0 4e f9 20 3e 0b b3 36 3c f4 da cc be 8d 36 a9 3d
       0.15720102 0.011151086 -0.40010798 0.08262358
0001e0 02 68 31 bd a7 df 2e 3e eb f3 ba be 96 b3 3a be
       -0.04331208 0.17077504 -0.3651422 -0.18232569
0001f0 4b 76 dd 3e 27 b6 a7 be f0 f2 85 3e a8 90 b1 be
       0.43254313 -0.3275616 0.2616191 -0.34680676
000200 45 aa 25 bf da 72 57 3d 0b e5 f0 3e 23 16 09 3f
       -0.64712936 0.052599765 0.47049746 0.535494
000210 29 48 fe 3e b3 12 b4 3e 6c 18 2d 3f 8e 68 e1 3e
       0.4966443 0.35170516 0.6761539 0.4402508
000220 a8 59 76 3e 98 d4 f1 3e 04 7c 9a be 0b 23 7d 3d
       0.24057639 0.4723251 -0.3017274 0.061800998
000230 d6 25 62 bd 10 4d 4d be d4 e9 0f 3f ae a8 09 be
       -0.055211864 -0.20048928 0.5621617 -0.13443252
000240 bc d3 58 3e ea 55 09 bf 39 4f ed be 32 72 a7 3e
       0.2117452 -0.5364672 -0.46349505 0.32704312
000250 98 5f f1 3e 90 76 b2 3e 77 04 65 bf b5 a3 f0 be
       0.47143245 0.3485608 -0.8945994 -0.469999
000260 f9 f4 19 3d 10 9a 5c be 87 48 1c bd ac aa d4 bd
       0.03758714 -0.21543145 -0.038155105 -0.103841156
000270 9d 6b 2a bf 3a 87 8b be 6c 32 42 3f 44 50 9c bd
       -0.66570455 -0.27251607 0.7585819 -0.07632497
000280 d0 c2 00 3e 8e 7b 95 3e 96 71 da 3d c9 a5 9e 3e
       0.12574315 0.29195827 0.10666196 0.3098586
000290 15 16 aa be 7a 1c 0f 3f 20 d1 2c 3f a9 81 86 3e
       -0.33219972 0.55902827 0.675066 0.26270798
0002a0 3a dd bf bd 4b 7a 8b bd ae 52 52 be f1 21 b8 3a
       -0.093683675 -0.06810435 -0.20539352 0.0014048201
0002b0 3d 3d cc 3c 2e 3a 44 be 3c a2 60 be cc e4 04 3e
       0.024931544 -0.19162819 -0.21936888 0.12977904
0002c0 9e 12 90 3d df 86 a5 3e e5 98 c6 3e 46 1b 93 3e
       0.07034801 0.3232946 0.38788524 0.28731745
0002d0 1b 23 92 be 03 6c 0d 3f 73 42 61 3d 48 b3 be bd
       -0.28542408 0.5524294 0.05499501 -0.09311539
0002e0 70 7d 2e be cc 0f 2b 3e 60 34 2a 3d 20 de 81 3d
       -0.17040038 0.16705245 0.041553855 0.06341195
0002f0 d6 4f 9d be 2c 7a ce 3e 82 1f 61 3e 29 0d 5c 3e
       -0.30724972 0.40327585 0.21984676 0.21489395
000300 7f 2e ae 3c 66 25 52 3e 77 8d 35 be 83 58 93 be
       0.021262405 0.20522079 -0.17729746 -0.28778467
000310 1f 27 a3 3d 41 75 d0 3e 1a 3d 88 be bc f5 8b 3d
       0.07966446 0.40714458 -0.26609117 0.068339795
000320 2e a1 2d 3f d0 6c 07 bb f7 bf 98 bf 20 51 0d bf
       0.67824066 -0.0020664223 -1.1933583 -0.5520191
000330 f5 cf 46 3e 9d ee a2 be 35 0c f4 be 35 1a a9 bd
       0.19415267 -0.31822672 -0.47665563 -0.08256952
000340 29 b9 ae 3d a1 ab f6 3e 05 62 0f be c4 e1 79 3e
       0.0853141 0.48177817 -0.14002235 0.24402529
000350 f3 f6 81 be 62 df cb be a8 ca 95 bf 2f 55 38 bf
       -0.2538372 -0.39818865 -1.1702471 -0.7200498
000360 1a 8e bb 3d 1e 3f 30 be 5f 10 db 3d 20 f8 ca 3c
       0.09157963 -0.17211577 0.10696482 0.024776518
000370 a6 10 0f bf 0b 7f a3 be 3d 41 7d bf 09 cd b5 be
       -0.5588478 -0.31932864 -0.9892767 -0.35507992
000380 99 ff 76 3e 25 2e 65 be a1 e1 7b be 0c 0d 1c 3e
       0.2412094 -0.22380884 -0.2459779 0.15239352
000390 2e a8 35 be 57 7b 05 3e 5b 79 9b be 85 52 eb 3d
       -0.17739937 0.13035332 -0.30366024 0.11490349
0003a0 32 83 e8 3b 5f 25 9d 3e 60 fa 01 3f f4 31 63 3e
       0.007095718 0.30692574 0.50772667 0.22187024
0003b0 33 57 9e 3e c1 59 35 be 7f 91 bc 3e 09 dd c2 be
       0.30925903 -0.1771002 0.36829755 -0.3805926
0003c0 de d2 09 bf 2d 2f 78 be 5a 2f 4d bf 82 e4 e7 be
       -0.5383738 -0.24236746 -0.8015038 -0.45291525
0003d0 3c 56 6d 3e 30 3a 95 3e f8 71 ad 3f c4 17 11 3f
       0.23177427 0.29145956 1.3550406 0.5667689
0003e0 e6 31 3c bf a2 84 ed be a4 5c 2d 3d d7 62 56 3d
       -0.7351364 -0.46390253 0.042324677 0.052340355
0003f0 ee 04 fd 3c e5 46 a1 be 43 89 8d be 53 11 97 be
       0.03088614 -0.314994 -0.27643785 -0.29505405

fc.0.bias f4 [64]
000000 f8 c0 9b be 46 99 ad be 38 7a 87 bd 9b aa 1b 3f
       -0.3042066 -0.33906 -0.06615108 0.608072
000010 7d 2d 19 3f da e5 3e 3f c7 b4 2e 3f ac ab 69 be
       0.59835035 0.74569476 0.68244594 -0.22819394
000020 c8 fe 4a 3f b6 e0 3e 3f 8d ed 45 3f 80 4d 4e be
       0.79295015 0.7456163 0.773156 -0.20146751
000030 ee 7b 4a 3f 8e 86 35 3f f6 ad bb bd 73 83 fc 3e
       0.7909535 0.7090844 -0.0916404 0.49319038
000040 8e df cb 3e 53 e5 0d 3f 66 8b e6 bd 14 63 23 3f
       0.39818996 0.55428046 -0.11257057 0.63823056
000050 ab 2d 80 be 06 8c 79 be 2b 53 09 bf 67 74 43 3f
       -0.25034842 -0.24369821 -0.5364253 0.7634949
000060 1b 6d 4c 3f 31 91 4d 3f 08 84 e1 be da 9b 6e be
       0.7985398 0.8029967 -0.44046044 -0.2330164
000070 cf ad 17 3f 1b e4 d5 3e a7 9a 36 3f 1c 21 0a 3f
       0.59249586 0.41775593 0.7132973 0.5395677
000080 4e 98 49 be 69 dc 77 be d7 5e 16 3f ac b2 ff 3e
       -0.19687006 -0.24205174 0.58738464 0.49941003
000090 a6 ff 13 3c f2 f9 b5 be 33 90 cf 3e 0f 5b 48 bd
       0.009033119 -0.35542256 0.40539703 -0.048914965
0000a0 99 e6 23 3f 6a fa e6 3e 2e 51 b9 3e 7c bf 07 3f
       0.6402374 0.45112926 0.36194748 0.53026557
0000b0 44 29 0a 3f 40 7a ee 3e b2 96 e2 be 53 8c ef 3e
       0.53969216 0.46577644 -0.44255596 0.46786746
0000c0 fb e8 41 3f 93 c1 49 3f d4 5a 08 be bd be f6 3e
       0.75746125 0.78810996 -0.13315898 0.48192397
0000d0 d8 56 45 3f 8c 3c ca bd 2c ef 4b 3f 15 1c c5 bd
       0.7708564 -0.0987483 0.7966182 -0.09624497
0000e0 4f 66 01 3f 3d 0d cf 3e 14 a6 e8 3e 68 cf f1 3e
       0.50546736 0.40439788 0.45439208 0.4722855
0000f0 d9 ea 99 be e4 34 c5 bd cf d6 b4 be ac c1 e5 3e
       -0.30061987 -0.09629229 -0.35320136 0.44874322

fc.2.weight f4 [64, 64]
000000 05 8e d6 bd 98 f9 96 3e ae 7c ca bd 9b d8 bf bd
       -0.10476307 0.294873 -0.09887062 -0.09367486
000010 ed 8c 7e bd c3 87 3f be e4 e6 d3 3c 95 90 d8 bb
       -0.062146116 -0.18704133 0.025866933 -0.0066090324
000020 0d c4 a1 bc 45 69 0a 3d 1b ad bc be c3 74 32 3e
       -0.019746805 0.0337918 -0.3685082 0.17427354
000030 1b 44 65 3c ff e8 10 bf 69 44 d7 3d c3 2d c0 bd
       0.013993288 -0.56605524 0.10511095 -0.09383728
000040 63 cf 25 be 1c 0f 04 bf ce 7c 88 3d 7a ef 6f be
       -0.16192393 -0.51585555 0.066644296 -0.23431197
000050 bb 92 7e 3e 4c 50 66 3e fe e6 cb 3e 5e d8 6d be
       0.2486066 0.22491568 0.3982467 -0.23227069
000060 36 3e 9b bd 51 26 d4 bd 0c bc a5 3e 7c d9 c5 bd
       -0.07580225 -0.10358871 0.3237003 -0.096606225
000070 6f aa 18 3d f7 0c 9c 3d 9a 2d 3c 3c 45 5b 62 3d
       0.037271913 0.0761966 0.011485482 0.055262823
000080 29 61 56 3d 17 c3 49 3e bb ca 1e 3d b6 55 ac be
       0.052338753 0.19703327 0.038767558 -0.33659142
000090 e6 c5 1a 3c a3 85 78 3e 22 7d 8a bd 83 d3 23 be
       0.009446597 0.24269728 -0.067621484 -0.15998654
0000a0 a1 8f a1 bd e2 92 d8 be 3e 19 8e be d6 2d 09 bd
       -0.07888723 -0.42299563 -0.27753633 -0.03349098
0000b0 5b 69 51 3c 3f 74 b2 be 98 5b d5 3d f9 0d 0a bf
       0.012781466 -0.34854314 0.10417861 -0.5392757
0000c0 69 24 2e be 8f ba 8f 3d 89 42 24 3e 67 70 64 bd
       -0.17006077 0.07018005 0.16041006 -0.055771258
0000d0 83 a2 38 bd 65 2d 32 3e 56 b3 56 be a6 b1 7b 3d
       -0.04507686 0.17400129 -0.20966849 0.061448716
0000e0 89 6e 85 3d d6 4b e2 be 1f cc 07 3d 9c 8b 37 3e
       0.065152235 -0.44198483 0.03315365 0.1792435
0000f0 0c fe 98 bd 7e 02 54 3e 3c c2 23 3c d6 ea 6d bd
       -0.074703306 0.20704076 0.00999504 -0.058085285
000100 ba a8 bb bd e5 ee de 3d 96 8a c9 bd 11 43 f4 bb
       -0.091630414 0.10885409 -0.09840886 -0.007454284
000110 66 87 f1 bc 38 d2 83 bc 8a dd a5 3d d8 c8 26 3d
       -0.029483508 -0.016091451 0.08098896 0.040718883
000120 0e 17 26 bd 39 4a 5f 3d 3f b4 0a be 6b 4a 98 bc
       -0.04054933 0.054514144 -0.13545321 -0.018590173
000130 e5 84 83 3d 88 34 9d bd dc c5 0d bd 26 33 05 be
       0.06421832 -0.07676035 -0.03461252 -0.13007793
000140 16 ff 02 bd 58 80 a7 bc bc ce 04 3d 54 e4 62 bc
       -0.03198155 -0.020446941 0.03242372 -0.013848383
000150 bc ac 06 bd 23 aa 03 3e 3d eb 44 bd 1d 68 9f bd
       -0.032879576 0.12857871 -0.048075903 -0.0778353
000160 62 48 0d bd 81 93 83 3d ea f8 9f 3d 78 db 22 3d
       -0.034492858 0.064246185 0.078111485 0.039760083
000170 d8 8f 09 3d 64 37 e0 bc 17 89 7c bc c1 0d d3 3b
       0.033584446 -0.027370162 -0.015413544 0.0064408486
000180 40 15 3d 3c 40 01 3b 3d 28 58 87 3c b4 df f6 bd
       0.011540711 0.04565549 0.016521528 -0.12054387
000190 4d 5a 93 bd cf c8 85 3d 53 70 9c bd 0e c8 dd bd
       -0.07194958 0.06532442 -0.07638612 -0.10829173
0001a0 df 08 a7 bc 45 1d 1e be d0 db d9 3d ff cf 03 3b
       -0.020389972 -0.15440853 0.10637629 0.002011299
0001b0 8d 47 a1 bc 92 02 1b 3d e0 9b ff 3c 4d 49 32 be
       -0.019687438 0.037844248 0.031202257 -0.17410775
0001c0 96 0f 55 bc 7b d1 c0 bd 3f 1a 1d bd 26 bc ab bd
       -0.013004204 -0.09414955 -0.03835511 -0.08385496
0001d0 53 e5 1e bd b6 77 c1 bd e5 d1 ea bd a8 7f 95 bd
       -0.03879292 -0.09446661 -0.114658155 -0.07299739
0001e0 e8 87 35 bd b1 fa 26 bd 78 c9 36 3c 7b f5 c0 bd
       -0.044319063 -0.04076642 0.011156432 -0.09421822
0001f0 30 fe d3 bc 6a 17 c2 3c 0e 08 91 3d f2 5c 1a bd
       -0.025878042 0.023692805 0.070816144 -0.037686296
000200 1b 77 b5 bc 02 c8 84 bd dc 12 8a 3d e1 09 ff bd
       -0.02215152 -0.06483461 0.067418784 -0.12453056
000210 4e 7b 60 3e f9 b8 ed 3b bf 34 f9 3d 3b b7 bf 3e
       0.21922037 0.0072547165 0.12168264 0.3744448
000220 37 b3 c8 be 66 3e 92 be cd 01 eb bb 4d fd 5e bd
       -0.3919923 -0.2856323 -0.0071718455 -0.054440785
000230 95 24 a9 be 86 f2 58 3e 8d 88 ed bc 7e 6d 1d 3c
       -0.33035722 0.21186265 -0.028995777 0.0096086245
000240 49 7b eb bd 30 41 25 bd 0f 9f 61 3e e5 4b 66 3e
       -0.11498124 -0.04034537 0.22033332 0.22489889
000250 b3 72 2b bd 29 d6 39 bd 24 3e 01 be a8 11 db 3c
       -0.041857433 -0.045370255 -0.12621361 0.026741818
000260 d8 e9 2f 3e 0e 8d 1b 3e af 04 e4 bd 39 46 0a 3e
       0.17179048 0.15190527 -0.11133706 0.1350335
000270 ba 86 cd bd 6a 16 c7 bd dc 40 7d 3d e8 a9 87 be
       -0.10035463 -0.09721072 0.061829433 -0.26496816
000280 21 fc ad 3d 0a f4 12 bd ba 2b c7 bd 81 e3 84 3d
       0.084953554 -0.035877265 -0.09725137 0.064887054
000290 c9 ea 61 be 92 92 ef bd 8d 73 1e 3e c2 fe 42 3e
       -0.2206222 -0.11697878 0.15473767 0.19042495
0002a0 22 92 b2 be 1a ad 5c bd a3 bf cb 3d 71 7c e2 3d
       -0.34877115 -0.05387602 0.09948661 0.110588916
0002b0 d2 f5 b9 be 75 a9 4f 3e e4 70 57 3d 7a 64 31 3e
       -0.3632036 0.20279486 0.052597895 0.17323485
0002c0 f6 ec 4c 3d 85 d5 db 3b b3 51 97 3d 06 54 5e 3d
       0.05003067 0.006708803 0.0738863 0.05427935
0002d0 e3 0c 27 be 4f 42 9b 3e 89 04 93 bc 0b 84 68 3e
       -0.1631351 0.30324027 -0.017946498 0.2270662
0002e0 3f eb ad bd 0c 8b c7 3d 67 a3 b0 be 18 2b bc bd
       -0.08492135 0.09743318 -0.34499666 -0.09187907
0002f0 6f 20 00 3f 4b 67 69 be 1b eb 13 3e 19 eb 45 3d
       0.5004949 -0.2279331 0.14445154 0.04831991
000300 49 88 79 be 7b db b0 be 00 f4 f4 bd cf 7a 9c 3e
       -0.24368395 -0.3454245 -0.11960602 0.30562446
000310 37 ce b4 3e a6 4e a6 3e 2c 9f 7f 3e a7 15 42 be
       0.3531358 0.3248188 0.24963063 -0.18953572
000320 e9 e8 84 3e 38 a9 b4 3e 58 18 cf 3e cf 61 c8 be
       0.25958946 0.35285354 0.4044826 -0.39137122
000330 6b b2 d1 3e 22 f9 91 3e 6b a0 aa be e8 89 d7 3e
       0.40956435 0.28510386 -0.33325514 0.42097402
000340 a3 7e 88 3e 7b f6 15 3e 3a 9a 90 be 1a f2 af 3e
       0.26659116 0.14644806 -0.28242666 0.34364396
000350 c8 a2 32 bf b5 7b ac be 4c a7 a7 be d6 02 cc 3e
       -0.69779634 -0.3368813 -0.32744825 0.39845914
000360 63 6f ad 3e 67 72 62 3e bc 1a 35 be 85 84 c3 be
       0.33874044 0.22113954 -0.1768598 -0.38187042
000370 c3 7e 2f 3e 28 7f b3 3e e9 fc 8d 3e ed 21 95 3e
       0.171382 0.3505795 0.27732018 0.29127446
000380 d9 31 b4 be 29 9d da be b7 e9 8f 3e 31 b5 55 3e
       -0.3519428 -0.4269803 0.28107998 0.208699
000390 6c 08 5f 3e 4a fa ca be 77 d5 0d 3e 38 c3 67 be
       0.21780556 -0.3964408 0.13850962 -0.22633064
0003a0 9b ba d0 3e 53 0c a9 3e 82 92 69 3e d3 8e 87 3e
       0.4076737 0.33017215 0.22809795 0.26476154
0003b0 a6 b5 ba 3e 64 40 24 3e f0 fa 6d bc 21 66 2e 3e
       0.36466712 0.16040188 -0.01452516 0.17031147
0003c0 de c3 89 3e 76 e9 7c 3e c6 3e e5 be 04 f0 ba 3e
       0.26907247 0.24698433 -0.44774455 0.36511242
0003d0 47 a5 df 3e 80 77 27 bf 4d 63 29 3e 07 a2 f4 bd
       0.43680784 -0.6541672 0.16541786 -0.11944967
0003e0 68 82 6e 3e f6 09 bf 3e 5a f6 7c 3e 88 a6 8f 3d
       0.23291934 0.37312287 0.2470335 0.07014185
0003f0 e1 b1 72 be 02 53 e8 be cd 66 65 be 9d 7a 4e 3e
       -0.23700668 -0.4537583 -0.22402497 0.20163961

fc.2.bias f4 [64]
000000 8c 00 03 be 9e 1a f5 bd 5c 3d 9f 3d 90 19 bf 3e
       -0.12793177 -0.119679675 0.07775375 0.3732419
000010 61 82 66 3e 80 5f b8 3e 32 30 8d 3e 95 f8 c3 3e
       0.22510673 0.3601036 0.27575833 0.3827559
000020 b2 6a 83 3e fa eb 44 3c e4 1b 7b 3e 2b 0b b7 3e
       0.2566734 0.012019152 0.24522358 0.35750708
000030 71 47 b3 3e ed e7 83 3e 8e 04 9f 3d e1 f8 03 3d
       0.35015443 0.25762883 0.077645406 0.03221977
000040 6c ad c0 3d 30 94 ab 3e b1 dc f4 3d 70 41 6c bc
       0.094080776 0.33511496 0.11956156 -0.014419898
000050 36 79 71 3e 74 e1 c6 3e d1 23 a9 bd f5 38 fe bb
       0.23581395 0.38843882 -0.082587846 -0.0077582547
000060 31 e0 f1 bd f8 4b 0d 3d 90 4a e0 bc 6e 37 51 3e
       -0.11810339 0.034496278 -0.027379304 0.20431301
000070 fd a3 bd 3e 18 bf 94 3e 96 b4 78 bc d9 5d f6 bd
       0.37039176 0.29052043 -0.015179774 -0.12029619
000080 d0 92 c9 3e ec c1 94 3e 7b 18 6d bd 59 6a a9 3e
       0.39369822 0.290542 -0.057884675 0.3308895
000090 c7 49 4a 3d ce 3e b2 3d 7b 81 43 bd ac 3a b3 3d
       0.049386766 0.08703385 -0.047730904 0.08751425
0000a0 05 3e 9b 3e 7f cd b4 bd 38 20 1d 3d 6a 96 cc bd
       0.30320755 -0.08828258 0.038360804 -0.09989627
0000b0 12 d7 6a bc 5e d0 9f 3e 69 aa 8a 3e 98 66 08 be
       -0.014333503 0.3121366 0.27083138 -0.13320386
0000c0 ff 5c ac 3e d6 4d 02 be ae cb ef bd 9f 83 b2 3d
       0.336647 -0.12725005 -0.11708771 0.08716511
0000d0 09 e1 f2 3c ec 8b 09 3e 17 a9 9c 3e 17 bb 26 3d
       0.02964832 0.13432282 0.30597755 0.040705767
0000e0 4e 33 4e 3e 91 6e da 3e 34 29 09 3d 50 2d e1 bc
       0.20136759 0.4266248 0.03348656 -0.027487427
0000f0 e1 46 c5 bd 55 99 6d 3d 09 e4 64 3e 30 d1 1b 3d
       -0.0963266 0.058007557 0.22352614 0.038041294

actor.weight f4 [2, 64]
000000 54 9d e5 bd da 87 52 3d b4 3c 10 be dc f2 8b 3d
       -0.112116486 0.05139909 -0.14085656 0.06833431
000010 65 6e e3 bc ab f6 2c bc 05 64 89 bc 75 e6 ef bd
       -0.027762601 -0.010556857 -0.016771326 -0.11713878
000020 78 cb 25 bd 64 56 90 3e 3f 57 86 bd 2e 89 d1 3d
       -0.040477246 0.2819091 -0.065596096 0.10231243
000030 76 70 d3 bd 6c d7 f6 bd 07 a6 24 3c 10 0d 8d ba
       -0.103241846 -0.12052807 0.01004935 -0.0010761339
000040 76 7e c1 bd b6 9d b6 3d 8e 7b 2d be 28 24 b4 3c
       -0.09447949 0.089168 -0.16941664 0.021989897
000050 fe c6 e0 bd 1e d4 2b 3c 29 36 8e bb f4 d9 c7 be
       -0.10975455 0.010487584 -0.0043399525 -0.39033473
000060 18 57 9b bd b8 80 a5 bc 80 a4 fb 3d a1 45 1e bd
       -0.07584971 -0.02020298 0.12287235 -0.038640622
000070 af 60 ae 3d 29 91 84 bd b5 6c 32 be a8 48 89 bc
       0.08514535 -0.064729996 -0.17424281 -0.016758278
000080 bc 64 6d bd 22 cf 62 bd 42 59 b6 3e f7 7f 02 bd
       -0.057957396 -0.05537332 0.35614973 -0.031860318
000090 20 d9 b7 bd 0c 46 2a bc 28 12 dc be 20 66 b9 3e
       -0.0897696 -0.010392677 -0.42982602 0.36210728
0000a0 bb 56 b0 3d f4 27 27 3c f3 84 cb bd 01 e1 e9 3d
       0.086102925 0.010202397 -0.099374674 0.11419869
0000b0 bf d6 e6 bd 25 08 a1 3d c0 1d 23 3e b2 0f 83 be
       -0.11271428 0.078628816 0.15929317 -0.25597912
0000c0 a2 3c 58 3d 07 09 9a be a0 b2 32 bd 99 da b3 be
       0.0527922 -0.30085012 -0.04362738 -0.35127714
0000d0 f5 20 ca be 57 75 26 be 3b c1 0e 3e 5e ef 00 be
       -0.3947827 -0.16255699 0.13940899 -0.12591311
0000e0 b0 b7 a1 bd 8e 94 b6 3c 24 ed 8c 3d 00 59 55 3d
       -0.07896364 0.022287633 0.068811685 0.05208683
0000f0 c4 c8 15 bc 28 be 2e bd d0 00 39 bb e4 96 41 3d
       -0.009142105 -0.042661816 -0.0028229244 0.04726304
000100 61 6d 7e 3d 95 d1 61 3b bc b9 d7 3c 0a 57 96 bb
       0.06211603 0.0034457196 0.026333682 -0.0045880126
000110 20 fb a3 39 4f 27 04 be d3 2c 70 bd 4f 60 b7 3d
       0.00031276885 -0.1290562 -0.058636498 0.08953916
000120 31 d1 7a 3d 55 9b 87 be f1 0f d3 3d 8f 30 04 3b
       0.061234657 -0.26485696 0.10305775 0.0020170545
000130 5a 4f 9f bd 89 56 7f bd 3a b6 64 be 63 5b ae 3d
       -0.07778807 -0.062338386 -0.22335139 0.085135244
000140 9e f4 48 bc b2 3c bd 3d 59 0d 0b 3e e0 ba 5f 3d
       -0.0122653525 0.09240092 0.1357931 0.054621577
000150 84 b9 88 3d 45 fd 0f 3d 70 c4 7e bc 3c 0e 98 3e
       0.06676009 0.035153646 -0.015549764 0.2969836
000160 bf 75 0e 3e 6c 5e 8b 3d 2e 74 a4 bd f0 32 67 3d
       0.13912104 0.06805119 -0.08029972 0.056445062
000170 50 3c df bd a5 3a 0f 3e 4d 50 5b 3e 07 0e a6 3d
       -0.109001756 0.13987215 0.21417351 0.08108144
000180 14 fc 78 3a 34 14 bd bd 5d 4e a8 be 19 a8 1c 3c
       0.0009498012 -0.09232369 -0.32872286 0.009561562
000190 e4 38 b1 3d c3 65 b9 3d e5 fe b6 3e 88 38 cd be
       0.08653429 0.09052613 0.35741344 -0.40082192
0001a0 4a 58 c0 bd 0c 5a dc 3d d3 ee c3 bd 19 08 74 be
       -0.0939184 0.107593626 -0.095670365 -0.23831214
0001b0 9f 46 ca bd 89 cf e6 3c 4b bd 10 be 1d 11 b8 3e
       -0.09876751 0.028175132 -0.1413471 0.35950556
0001c0 03 37 e4 bd 28 03 a0 3e ec cd d0 3d 9c 7d a6 3e
       -0.11143305 0.31252408 0.101955265 0.32517707
0001d0 dd fc cc 3e d6 0b 9d 3d e8 14 a4 3d c4 8d a5 3c
       0.4003667 0.07668273 0.080118 0.0202092
0001e0 03 38 18 be 71 54 f4 3d bc 1d ae bd 50 4d 4d bc
       -0.14865117 0.119301684 -0.08501765 -0.01253064
0001f0 45 34 5a 3d e6 29 d1 bc 0a 91 9c 3d 60 c8 e9 3c
       0.053272504 -0.025532674 0.076448515 0.028537929

actor.bias f4 [2]
000000 d6 0d 5c 3d bb 1d 0c 3e
       0.053724132 0.13683216

critic.weight f4 [1, 64]
000000 6a f5 bf be 83 3e 01 be 8d 20 ca be 63 69 c5 3e
       -0.37491924 -0.12621503 -0.3947796 0.38556966
000010 90 97 de 3e 22 01 bd 3e 5f cb c8 3e e6 3c e8 3e
       0.43475008 0.36914927 0.3921766 0.45358962
000020 d9 8f db 3e 08 51 3d bf 11 7c d7 3e da a3 b8 3e
       0.42883185 -0.7395177 0.42086843 0.3606251
000030 79 fc c1 3e 0b 9f bf 3e 07 c6 19 bf d1 71 c5 bd
       0.37887934 0.37426028 -0.6006779 -0.096408494
000040 38 ba 00 be 2e 74 c3 3e c8 9e ca be 60 7a 6c 3d
       -0.12571037 0.38174576 -0.39574265 0.057733893
000050 1d 23 dc 3e 61 46 ec 3e a6 09 0e be 68 08 1b bf
       0.4299554 0.46147445 -0.13870868 -0.605597
000060 4d a7 fe be f2 eb 80 3d d0 9e c8 bc f0 07 ff 3e
       -0.49737015 0.06295003 -0.02448979 0.49810743
000070 41 08 c5 3e 5b 65 f5 3e 0b ce 2d bf 9a 43 82 3c
       0.3848286 0.4792889 -0.6789252 0.015901376
000080 83 32 f5 3e a7 90 fd 3e de 0f 23 bf e5 b0 01 3f
       0.478901 0.49524423 -0.63696086 0.50660545
000090 0b 62 0f bf 52 66 73 3e 15 ae 20 bf ff 29 c4 be
       -0.56008977 0.23769501 -0.6276563 -0.3831329
0000a0 38 05 e4 3e 8c 58 f5 be 52 b6 e0 bd 97 c3 36 bf
       0.44535232 -0.47919118 -0.10972275 -0.71392196
0000b0 66 d4 a2 bd 1d a2 ea 3e 31 2e ef 3e 0b 17 1e bf
       -0.07950668 0.45826808 0.4671493 -0.6175391
0000c0 30 4f f9 3e 58 f1 1b bf 00 50 25 b8 7c 95 0d bf
       0.48693228 -0.60915136 -3.941357e-05 -0.5530622
0000d0 f7 b5 18 bf a7 9b d3 be 68 8c da 3e eb b3 ca be
       -0.59652656 -0.4132969 0.42685246 -0.39590392
0000e0 0f 71 de 3e 29 a3 d5 3e a0 37 5e 3c 26 57 e5 bd
       0.43445632 0.41726044 0.013563067 -0.11198263
0000f0 e7 c0 36 3d fb 66 8f 3d 6d 6d d9 3e 66 35 ce 3d
       0.04461756 0.07002064 0.42466298 0.10068779
